deployed_model/data/model.pth (torch, 49588 bytes, 6 tensors)

weight f4 [100, 4]
00000000: dd3d b43e 3f72 133f 809b 1dbf f962 b3be
00000010: 789a 64bc c0d3 bebe acf1 ba3e f150 163f
00000020: a66f 25be 6f13 903e a7d1 b0be fe2a d4be
00000030: d78d 983e f606 c0be d8ed 9d3e 6866 c9bd
00000040: 5e7e 78bd 0e91 ff3e 672f ecbd 8cce 99be
00000050: 6256 b8be 1a94 87be f871 47be 8e46 a73e
00000060: 71fb e33e 22f0 a03e ecb6 5fbe 1738 f83e
00000070: 503e 49be 4007 b9bc b095 c9be 464d e43e
00000080: 585a febe c477 a0be 04ad 6c3e d4d5 143e
00000090: 8298 7abe ed73 f23e 1603 64be bafb 3b3e
000000a0: 8ff3 933e cd73 e0bd 9982 553e 2b45 bf3c
000000b0: fd5b 7b3e 2e05 f6be 440d b2be ac0c ed3e
000000c0: 98ea 5a3e 6e08 753e 79ea 493c e36c cc3c
000000d0: eedf 8bbe 1f16 083d cb0d 273e 7968 973e
000000e0: f4ae 4bbe fcb5 62be 366b b9be 4ebe a0be
000000f0: a4b0 f73e d54e 15be 602a 383e 8fd2 ccbe
00000100: 60dd e3bd ace1 8fbe 44d9 c1be f01d 5abd
00000110: 3377 0a3e fa78 3abd e666 58be ccb2 e83e
00000120: 6e14 b4be 9071 dc3d d8c7 ad3e 9cd0 cabe
00000130: e807 3fbe 30fc de3d de94 a9be 84cb 7fbe
00000140: f128 f83d 5369 c0bd fc7e 783e db99 85bd
00000150: fce1 62be 7cc7 44be 1e8f 943e 60fa 4fbe
00000160: f61f dbbe c06f 193d f843 173e 28f8 b93d
00000170: b1e6 3b3e 0741 2a3e 80f5 e2be 845d a53e
00000180: 8320 e13d 358e be3e 179f cb3e 0672 a03d
00000190: 0817 d63d e4db 06be 000a 543b 0888 e1be
000001a0: 184d 9b3d 6062 d7bd 702c 9dbe a0fc 7abd
000001b0: 5272 e2be 5acd 99be ecfa 343e b2de c5be
000001c0: 2636 a1be 080f b8bd ac23 e9be 44c3 8c3e
000001d0: 908a c83e 7368 f2be 1ce2 7bbd 7bef 043f
000001e0: 113d 96be 8acd d63e 8f3d 983e 64e3 493e
000001f0: a2a4 dbbe bcf0 423e 4812 68be e4c7 e93e
00000200: 68c4 e63e 0e7e d53d 2ed3 cd3d fe3c c2bd
00000210: bc54 c3be 10f5 9dbd 24f1 3abe fa81 d53e
00000220: 4c0e 083f 785b bcbe 46d4 983d 7345 d3be
00000230: 3c7f 453d 1854 af3e 49df 94bd a08c 0ebf
00000240: 6b85 ba3e 0523 ec3e 2de3 c9be 71ae 393c
00000250: 46f0 ebbe 4254 93be 845e e1be 840a 95be
00000260: f174 a3be bb48 f93c 953a c33e 7226 62be
00000270: d701 b43e c1f4 dfbc e1f4 b7be 7173 55be
00000280: 258f 803e 36b6 2e3e 4ea1 c8be 4164 973e
00000290: 711c bc3c 480a f13e 9882 18bd 4c59 c1be
000002a0: b0e7 37bd d4fb b5be 4af7 b8be ee18 e03e
000002b0: 40f0 0c3e 49c6 b7bd 98c6 d73e fc5a 8d3e
000002c0: 461b f2be 7e91 fe3e 5650 b4be ae01 d2be
000002d0: 218f 0c3e b27c 45be 3c1e 9e3e 1c17 8dbe
000002e0: 129a a0be a00f b63c 3898 a7bd 2834 85bd
000002f0: 0027 eabe c0a8 c23e a8d4 21be 9c14 f8be
00000300: 20db 87be 84ae ddbe b67d b5be 5cbe acbe
00000310: 5045 3bbd 5685 eabe 6084 2fbe 8003 a13e
00000320: 0427 e1be 3826 56be 02f3 c4be 0e8a c43e
00000330: 2315 053f fc74 993c 6cb2 9fbe a5a6 773e
00000340: e656 e43e bc97 73be e89d 35be ee2b 95be
00000350: 80fc 55bc 98e2 5ebe b2e0 d5be 9600 c1be
00000360: c2b0 b2be fe5f d0be 101c 82be 80d6 bdbe
00000370: ad62 1c3e a047 663d ee19 c93e 2e88 a8be
00000380: 5077 6b3d 50a8 5fbd f4f7 35be d4f9 d8be
00000390: 808d 94be 3072 e83d c8ca b2be c443 443e
000003a0: cc66 063f c1bc c2bd 6d31 96be de56 e3be
000003b0: 134b 393e d988 d1be 5e56 1c3f 45ab af3e
000003c0: b57d 19bc fddf 263d a3e6 da3e 5377 0d3f
000003d0: 6be0 b23e d12d 0a3f b36e a93e c419 50be
000003e0: 10e4 26be e7f1 753e d824 b53e d5b6 e1bd
000003f0: 4ca5 b9be 1cf1 44be 2cc0 8bbe 8448 fb3e
0.35203448 0.575962 -0.615654 -0.35036448 -0.013952844 -0.37270927 0.36512506 0.58717257
-0.16155872 0.28139827 -0.34534952 -0.4143905 0.29795715 -0.3750531 0.30845523 -0.098339856
-0.06066739 0.49915355 -0.11532479 -0.30040395 -0.36003405 -0.2648018 -0.1947707 0.32671016
0.44527772 0.31433207 -0.21847123 0.48480293 -0.19652677 -0.022586465 -0.39372015 0.44590205
-0.49678302 -0.31341374 0.23112875 0.14534694 -0.2447224 0.4735407 -0.22266802 0.18357745
0.28896758 -0.10959587 0.208506 0.023348412 0.2454681 -0.48050827 -0.34775746 0.4629873
0.21378553 0.23928997 0.012323969 0.024954265 -0.27319282 0.03322422 0.16313855 0.29571894
-0.19890958 -0.22139734 -0.36214608 -0.3139519 0.48376954 -0.14580853 0.17984915 -0.40004393
-0.11126208 -0.2810186 -0.37861073 -0.053251207 0.13522033 -0.04552553 -0.21133003 0.4544891
-0.35171837 0.10763848 0.3394153 -0.3961228 -0.1865536 0.10887945 -0.3312139 -0.24979979
0.12117184 -0.09395089 0.2426719 -0.06523486 -0.22156519 -0.19216722 0.2901544 -0.20310354
-0.42797822 0.03746009 0.14772022 0.09080535 0.1834972 0.16626368 -0.44327927 0.3229791
0.10992529 0.3721787 0.39769813 0.07834248 0.104536116 -0.13169819 0.0032354593 -0.44049096
0.07583064 -0.105168104 -0.30697966 -0.06127608 -0.44227844 -0.30039483 0.17673844 -0.38646466
-0.31486624 -0.08987242 -0.45535028 0.27492726 0.39168215 -0.47345313 -0.06149493 0.5192792
-0.29343465 0.4195369 0.29734465 0.19715649 -0.42899042 0.19037145 -0.22663224 0.45660317
0.4507172 0.10424434 0.10050045 -0.094842896 -0.38150585 -0.077127576 -0.1825605 0.41700727
0.53146815 -0.36788535 0.07462363 -0.41263923 0.048217043 0.34243846 -0.07269151 -0.55683327
0.36429915 0.46120468 -0.39431134 0.011333094 -0.46081752 -0.2877522 -0.44017422 -0.29109585
-0.31925157 0.030430188 0.38130632 -0.22084978 0.35157654 -0.027338387 -0.35929015 -0.20844819
0.2510921 0.17061695 -0.39185566 0.29568675 0.02296278 0.47078156 -0.03723392 -0.3776344
-0.04489869 -0.35543692 -0.36126167 0.4376902 0.13763523 -0.08973367 0.42143703 0.27608478
-0.47286433 0.49720377 -0.3521754 -0.41016906 0.13726474 -0.19285849 0.30882442 -0.27556694
-0.31367546 0.022224247 -0.0818333 -0.06504089 -0.4573288 0.3801937 -0.15803778 -0.48453224
-0.26534367 -0.43297207 -0.35447472 -0.33738983 -0.0457204 -0.45804852 -0.17140341 0.31447983
-0.4397508 -0.20913017 -0.3846665 0.38386577 0.5198538 0.01873254 -0.31190813 0.24184664
0.44597548 -0.23788351 -0.17736018 -0.29135078 -0.013060689 -0.21766126 -0.4177299 -0.3769576
-0.3490048 -0.40698236 -0.25412035 -0.37077713 0.15272017 0.05622065 0.39277595 -0.32916397
0.057486832 -0.054603875 -0.17770368 -0.42378104 -0.29014206 0.113499045 -0.34920335 0.19166476
0.52500606 -0.09508658 -0.29334584 -0.44402212 0.18095045 -0.4092472 0.61069286 0.34310356
-0.00936835 0.040740956 0.42754087 0.552602 0.34936842 0.5397616 0.3309227 -0.20322329
-0.16297936 0.2401806 0.35379672 -0.110212006 -0.36258924 -0.19232601 -0.27295053 0.49078763

bias f4 [100]
00000000: e465 d13e c352 373e 91ac e03e 1ec4 323e
00000010: 2d30 af3e b422 513e 6437 c2be c45f 553e
00000020: a6f3 fbbe 564c 80be dd6f 91be 1316 cd3e
00000030: 0d45 00bf b82b 393e b0fb 51be 71fa de3e
00000040: 3052 1a3e 27a8 f73e 0045 a23c f818 c63e
00000050: 0055 4b3e ac0c b93e 60f4 0bbd fa03 eb3e
00000060: b179 133c 7ced d5be 6843 86bd 0050 3fba
00000070: 08c6 ab3d d7c3 e6be 6c02 c4bd 9c01 ae3e
00000080: e647 8ebd e496 1fbe 8cd1 333e 97ec 9f3e
00000090: dbf3 5ebd d45c c0be 79c1 283e e068 9c3e
000000a0: c837 54be 2be4 ff3c 00a3 d13b 87d8 a13e
000000b0: fc2e e53e 9568 523e defb da3e e0c6 acbc
000000c0: 5095 4c3d e0af dc3e 48a1 a13d f211 0abe
000000d0: 7558 2f3e 503a d3be 843f 6e3e 87da c3be
000000e0: b820 9fbe dc34 14be 6b00 99be 7b7a 09bf
000000f0: 208f 06bf 79ef a23d 42bd 933e 96a6 ca3e
00000100: 3264 b73e 34f3 3fbe 377b 67be 8860 adbe
00000110: 5912 753b 2476 0e3e be5a 513d 423e f4be
00000120: 0c05 bcbe 1cd0 823e a6f2 0bbc 75c2 e53e
00000130: 3189 fe3e 78b1 3bbe b5c8 833e 2e28 cb3e
00000140: 7460 94be 3593 e8bc 0603 1cbe 4026 b1bc
00000150: 4108 823e acc2 e5be 0c2d e2be 40ea 3d3d
00000160: be3c e0be c049 093f eb33 533e 08fd d53d
00000170: b741 e2be 7c73 be3b 4ce9 8bbe c442 143e
00000180: 4b7b 993e 302d 103d c875 f23e b298 813e
0.4089805 0.17902665 0.43881658 0.17457625 0.34216443 0.20423394 -0.37932885 0.20837313
-0.49209327 -0.2505824 -0.28405657 0.40055904 -0.50105363 0.18083084 -0.20506167 0.43550447
0.15070415 0.48370478 0.019808292 0.38690925 0.19856644 0.3614248 -0.0341686 0.4590147
0.009001181 -0.4178275 -0.065558255 -0.00072979927 0.08387381 -0.4507129 -0.095707744 0.33985603
-0.06947307 -0.15584904 0.17560405 0.3123519 -0.054431777 -0.37570822 0.16480054 0.30548763
-0.20724404 0.031236729 0.006397605 0.3161051 0.4476241 0.20547707 0.42770284 -0.021090925
0.049947083 0.43102932 0.0789209 -0.13483408 0.17123587 -0.41255426 0.23266417 -0.3825266
-0.3107965 -0.14473289 -0.2988313 -0.53702515 -0.5256214 0.07955832 0.2885533 0.3958022
0.3581863 -0.18745118 -0.22605596 -0.3386271 0.003739497 0.13912255 0.05111193 -0.4770375
-0.367226 0.255494 -0.008541739 0.4487492 0.49714044 -0.18329418 0.25739065 0.39679092
-0.28979838 -0.028390506 -0.15235528 -0.021624684 0.25396922 -0.44875085 -0.44174993 0.046365976
-0.43796343 0.5362816 0.20625274 0.104486525 -0.4419076 0.0058121067 -0.2732643 0.14478594
0.29976878 0.035199344 0.47355485 0.2531181

weight f4 [100, 100]
00000000: c32e 773e 2543 8cbd 6a1c 1fbd 65e9 53bd
00000010: ae0f 26bc 1832 b73c bfcf 633d b40a e73c
00000020: 1db9 1abd 2790 c03c 5bc8 c5bd c907 10bd
00000030: a8c1 8e3c 6618 393d 67f4 b5bd 6a4e ce3d
00000040: e0e0 a73b ff1a 8abd ddc6 53bd 5621 a1bd
00000050: 56b0 d93c edae 7fbd 4b88 c2bd 43a5 4b3d
00000060: 2108 17bd 7660 713d 80ee a4bb 131c 7cbd
00000070: 80df ab3c 8424 9dbd 86cb 6abd 624d 253d
00000080: 1fe5 273d 6d84 1cbd 4593 cd3d 1031 2c3e
00000090: 5988 ee3d 265c 2f3d c944 4b3d 56a6 a53d
000000a0: 7a9e 67bd 6ec5 ca3d e369 66bd 60de fabd
000000b0: d005 e13b d3cb 3cbd e098 55bd acc9 c43c
000000c0: 8208 85bd d4cf 83bd 4a21 22bd d891 fd3b
000000d0: 928b e33d c38d 943d f6b3 263d d430 193d
000000e0: ca0b c0bd 2c99 e3bc a46f 2a3e 0e93 3ebe
000000f0: b19f 5bbd b994 113e b1f7 dfbc c0aa 12bb
00000100: 525d 0a3e 362f 92bd bd04 88bd 24df e93c
00000110: 3c33 24bd 6a72 5a3b ccc0 b83d 6efd 063d
00000120: a08e 0fbd e0d3 98bd fc29 163e a87a f9bc
00000130: 30d7 98bb 0e1f 45bd 627c 043c 5b2e de3c
00000140: 7b50 4fbd 8206 72bd 5ec4 433a 616e b93d
00000150: 1519 93bd a2e0 253d 7b86 a3bd 40ff 6cbc
00000160: 11ac 413c bf36 31bc 0a63 253c eca5 88bc
00000170: 6dc9 16be 663e 6c3d d902 66bd efe3 a13d
00000180: 935f a53d aec5 543d ae32 c33d 21d8 463e
00000190: 6aa7 cb3d 1616 cbbd fda9 813c 0e9a c8bd
000001a0: 23a2 0c3c 8d1e 51bd 9e26 b53d b529 913d
000001b0: a094 bbbc 267c b23d 2c49 fb3c f989 ca3d
000001c0: 21ad de3c 4e81 cc3c 17e9 33bd 51c0 0c3e
000001d0: b280 bebd dfde 33bc 8916 873d 7826 dbbc
000001e0: 9d2f 733d a008 e23b 1d27 af3d 37fd 123d
000001f0: b96f 09bd 7be8 873d 38ff e4bc 1747 34bd
00000200: 317a ad3d ed66 55bd 2166 103d 001a 4fbb
00000210: 1516 4e3d 8080 52bc 33a7 613d cb54 993d
00000220: e692 1e3e 5d5b a1bd 1a80 273c e8ec 4c3d
00000230: 0564 c0bb 01ab 123e bd16 c23d e39e afbd
00000240: 2d35 983d 7e48 463c 40d9 83bc 2a2d 5b3d
00000250: 8ab1 acbd c0ea be3c 00a5 d53b d250 ce3d
00000260: 39f8 803d d8cd 1e3c f45a e9bc 7c47 283d
00000270: d8b8 633c 0016 9cbb 7b4d ca3d c757 a5bd
00000280: 9c65 39bd 83cf 9e3c 7a04 89bd 6000 b53b
00000290: 40d0 e93c f465 bb3c 2dcc a1bd a27e 793d
000002a0: b0c4 8f3c 3e8f 9dbc 0ce6 b83c 8041 2f3c
000002b0: 00f4 c338 9b5d 823d 3a71 bb3d e8df 893d
000002c0: 563b 663d fb99 7c3d db38 1b3c d1a6 c7bd
000002d0: b647 993c 72aa e9bd 1a2e 053e 0cc6 c43c
000002e0: a409 633d ae94 123d 61a6 823d 9332 a7bd
000002f0: 82d5 c2bd b631 673c 1463 483d 3708 cc3d
00000300: d470 8fbc cb2f dcbd 1f1f 2abd 0c04 ab3c
00000310: df2b a83d 2872 47bc a68b 753c 9afb 313d
00000320: 7fa0 a3bd 443f db3c ebd9 67bd ac18 b2bd
00000330: a17e bcbd e294 253d a06b 023d 221f 9fbd
00000340: 342f 9dbc 5068 9c3c d6bc aabd ba09 a2bd
00000350: c901 c9bd 26d9 3c3d a868 9bbc 6cda 873c
00000360: 00eb 843c 0326 0dbd ad6d 833d 8d37 95bd
00000370: 377a 7bbc 9295 593d e0db fcbb 0ad6 8e3d
00000380: e596 81bd 6a1a 40bd f26f 5d3d 0156 b53d
00000390: 454e bd3d b706 963d 8ea2 933d b220 3f3d
000003a0: fbbb 8d3d dbd0 b43d 3ebb c5bd 5c88 213d
000003b0: b7e4 363d fa76 253d b0c5 34bd f12e 013d
000003c0: 4ac7 4c3d 2dbd 973d c0a7 b4bd c516 b0bd
000003d0: 7652 6a3d 270a afbd af53 c63d a068 0ebb
000003e0: 38ec a2bd 70b2 2dbd fa0c 0bbd 2330 463d
000003f0: 8c49 1a3d 9eeb 363d c0f4 c5ba 203c a9bd
0.24138932 -0.06848744 -0.038845457 -0.051736254 -0.010135574 0.022362754 0.055618044 0.028203346
-0.037774194 0.023506237 -0.096573554 -0.035163675 0.017426327 0.045189284 -0.08884507 0.1007355
0.0051232427 -0.0674343 -0.051703323 -0.078676865 0.026573341 -0.06242268 -0.09498652 0.049718153
-0.036872987 0.058929883 -0.005033314 -0.06155021 0.020980597 -0.076729804 -0.057323 0.040357
0.04098999 -0.03821223 0.10037855 0.16815591 0.116471 0.04281249 0.049626146 0.08088367
-0.05654762 0.09900938 -0.056253325 -0.12249446 0.006867148 -0.04609282 -0.052147746 0.024021946
-0.06495763 -0.064361244 -0.03958253 0.007738333 0.11110605 0.072536014 0.040698968 0.03740008
-0.093772486 -0.027782999 0.1664415 -0.18610784 -0.05361909 0.1421689 -0.027339788 -0.0022379607
0.13512161 -0.07137911 -0.06641529 0.028548785 -0.040087923 0.0033332356 0.09021148 0.032956533
-0.035048127 -0.07462287 0.14664453 -0.030453995 -0.004664324 -0.04812532 0.008086296 0.027121713
-0.05061386 -0.059088238 0.00074679207 0.09054256 -0.071825184 0.04049743 -0.079846345 -0.014465153
0.011820809 -0.010816275 0.0100944135 -0.01668068 -0.14725275 0.057676695 -0.05615506 0.07904803
0.0807487 0.051946335 0.09531151 0.19418384 0.09944041 -0.09916322 0.015828127 -0.097950086
0.008583578 -0.051054526 0.08845256 0.07088033 -0.022898018 0.08715086 0.03067454 0.098895974
0.027182164 0.024964001 -0.043923464 0.13745238 -0.093018904 -0.01097843 0.06596095 -0.026751742
0.05937158 0.006898001 0.08552382 0.035886016 -0.033553813 0.06636139 -0.027953729 -0.04401311
0.08470572 -0.05210011 0.035253648 -0.003160119 0.050314028 -0.01284802 0.055091094 0.07486876
0.15485725 -0.07878754 0.010223413 0.05003062 -0.0058712983 0.14323045 0.09476993 -0.08575227
0.074320175 0.012102244 -0.016094804 0.05350987 -0.084323004 0.023305297 0.0065199137 0.10074009
0.06297345 0.009692632 -0.028485753 0.041083798 0.013899051 -0.004763365 0.098780595 -0.08073383
-0.045262918 0.019386059 -0.06690307 0.0055237263 0.028541684 0.022875763 -0.079002716 0.060911782
0.017549843 -0.019233342 0.022570632 0.010696769 9.343773e-05 0.0636551 0.09152456 0.0673216
0.05620893 0.061670285 0.009474005 -0.097486146 0.018710952 -0.11409463 0.13005868 0.024020217
0.055429116 0.035786323 0.063793905 -0.08163943 -0.0951338 0.014110973 0.048922613 0.09962504
-0.017509855 -0.10751303 -0.041533586 0.020875953 0.08211493 -0.012173213 0.014986908 0.043452837
-0.079895966 0.026763566 -0.056604307 -0.08696112 -0.0920384 0.04042519 0.03184092 -0.0776961
-0.019187547 0.019092709 -0.08336799 -0.079120114 -0.098147936 0.046105526 -0.018970802 0.016583644
0.016225338 -0.03446008 0.06417403 -0.07285986 -0.0153489625 0.053121157 -0.007716641 0.069744185
-0.06327609 -0.04690019 0.054061837 0.088542946 0.09243444 0.073254995 0.07208739 0.04666204
0.0692062 0.088288985 -0.09654854 0.039436683 0.044651713 0.040396668 -0.044133842 0.031538907
0.049994744 0.07409129 -0.08821058 -0.08598093 0.057207547 -0.08546858 0.0968393 -0.0021729842
-0.079552114 -0.0424065 -0.033947922 0.04838575 0.037667796 0.044658296 -0.0015102848 -0.08263421

bias f4 [100]
00000000: ec4f 65bb 590b 33bd 52af 39bd 5cbd be3b
00000010: 848c 973d 8866 b6bc 0043 65bc d842 193d
00000020: b27e 323d 5e39 1a3d a790 1abd 2d0a c33d
00000030: 2819 153d 3345 833c e065 8fbd c0c3 09bc
00000040: efe4 08bc 8c78 5d3d 94ba ab3c e11c 8f3d
00000050: 83b0 97bd e68c 07bd 91d2 a0bd 3a9b 0e3d
00000060: 235b bebd e106 51bd 32ea 4e3d 807e e23b
00000070: 943f 14bd 5f3c 1a3d 604d ffbb 8171 c63d
00000080: 1d28 a4bd 769b 87bc edd1 a9bd 192b 553d
00000090: 2725 d0ba 571a 0abc 4a8b c63c f700 863d
000000a0: e5bb 8e3d 2ab0 e5bb fef6 6eba 529f 443d
000000b0: 14a9 e4bc d2d3 4a3d e31f bebb 730e 973d
000000c0: a6b0 9dbd 516a 953d c3ea c63c 9338 b33d
000000d0: 22de 91bd 03fb aabd 71b1 1a3d 5b6f 783d
000000e0: 1462 9abc 7db0 69bd e74f b7bd d4d3 e13c
000000f0: 12fe e3bc 4d9e 343d 4db9 9ebd 5b54 613d
00000100: 588f 0e3b 7a65 2e3d 9690 99bc c834 5fbd
00000110: e01b 83bd 2270 713d 312b 8dbc 73c9 27bc
00000120: fa34 5a3d dc09 e63c e8a2 97bd d2f2 523d
00000130: 9429 923d b0a5 b8bd 4ca6 733d 9313 66bd
00000140: 4185 aab9 0df3 b8bd 286e 523c aa7b 2cbd
00000150: eb18 983d fdda 3b3d 4afa bbbd d092 a0bd
00000160: 97d1 67bd 0d0f a83d ed6d 8ebd fd94 663c
00000170: 96d1 06bd 8886 cb3d 75c6 8d3d a379 5b3d
00000180: 444a 893c f0b1 ba3c 48e7 523c c004 debc
-0.0034990264 -0.043711994 -0.045333214 0.0058209132 0.07399848 -0.022265688 -0.013993025 0.037417263
0.043577857 0.037652366 -0.037735607 0.09523425 0.036400944 0.016024208 -0.07001853 -0.008408487
-0.008355363 0.05407004 0.02096299 0.0698793 -0.07406714 -0.033093356 -0.07852662 0.034816004
-0.09294727 -0.05103195 0.050516315 0.0069120526 -0.036193445 0.03765523 -0.0077912062 0.09689618
-0.080154635 -0.016553622 -0.08291993 0.052043054 -0.0015880213 -0.0084291315 0.02423634 0.06543153
0.06969432 -0.007009526 -0.0009115784 0.048003502 -0.027912654 0.049518414 -0.005802141 0.07375803
-0.07699709 0.07295669 0.024281865 0.08751025 -0.071224466 -0.08348658 0.037766878 0.06065307
-0.018845595 -0.057053078 -0.08950787 0.027566828 -0.027831111 0.04409628 -0.07750187 0.05501209
0.002175292 0.042577244 -0.018745702 -0.054493695 -0.06401801 0.05894483 -0.01723251 -0.0102409
0.05327318 0.028080873 -0.07404119 0.051501103 0.07136837 -0.090159774 0.059484765 -0.05617101
-0.0003252421 -0.09030733 0.012843646 -0.042110123 0.07426628 0.04586314 -0.09178598 -0.07840502
-0.056596365 0.08205996 -0.069545604 0.0140736075 -0.03291472 0.09937769 0.06922618 0.0535828
0.016759045 0.022789925 0.012872525 -0.027101874

weight f4 [3, 100]
00000000: 4e45 763e af3b 483e 17bd b8bc 204e e6bd
00000010: 3555 993d f6f7 02bd aad0 66bd 2000 983c
00000020: 133f 5bbe b0f8 bbbd 20c0 13bd 6359 6d3e
00000030: bc37 223e 25d4 57bd e491 3c3d cdb4 d13c
00000040: 6788 823c c4dd 31be d667 723d f47f d13c
00000050: a3e4 a2bd d601 bfbd dbac 3cbd a20f 753d
00000060: 0cd5 133e 1371 1fbd a79b 8d3d 0089 acbb
00000070: 463a 54bd 0dd0 debd e269 793d 5e9e 2c3d
00000080: 1ecf 6a3d 2500 bd3d 985b 32bc 5a3c 983d
00000090: 0e3e 1fbe a56a 31be 4554 c8bc fc87 59bd
000000a0: 4c91 c4bc c4ac edbd 6901 53bb c04e 8b3c
000000b0: 1be9 c5bd dae1 1bbe ea56 a7bd 7ef2 7b3d
000000c0: 547b 0ebe 8684 143e 04ec 78be a686 063d
000000d0: 2886 cabc 1550 05be 33ce 423e adb6 dc3d
000000e0: 72e6 c3bd 38c1 f8bd fa3a 14bd 5855 1e3e
000000f0: d9b3 e1bd 985a fc3d 5dbf 4bbd 450b 563c
00000100: 4c6f dabc a7f3 acbd c3c1 76be 7294 9ebd
00000110: e46a 45be 50b4 723c 25ad c43d 8c9a 8f3e
00000120: 6ff1 233d e2cd 173d 3047 a33b 7006 433e
00000130: 0117 b43e f0ff 683c 1c49 363e 3986 cb3d
00000140: f133 2dbd bae3 c43d 2fac cfbe 8f33 ce3e
00000150: da61 60bd 0079 97bc f038 733c 875f 4abd
00000160: 2c16 d43c e80b 4a3c 6ad6 b23c 576b adbe
00000170: 8c79 5f3d ae24 c93e 82c7 373d 5275 493e
00000180: 3ea1 05be 6a14 acbe ee7d 6dbd 7ac1 353d
00000190: f9b5 3f3d 3534 a03d 2a91 c33d d8a1 86bc
000001a0: dae7 62bd 1a0e 61bd 47ce 2bbd 1d7b 933d
000001b0: 3eb4 2cbd 483b babc b282 2d3d f58b 113e
000001c0: f1b6 fc3d 17c8 77bd c701 7b3d 6f68 24be
000001d0: b226 bbbd 84a8 38be 5b7a af3d 5db8 77bd
000001e0: b717 b93d 01e7 88be 0e65 dc3d 30b8 253c
000001f0: 5160 88bd 7462 823d 00cd 5fbb 3084 a8bd
00000200: f7bf 81bd 68fa 2e3e e4be f33c aad5 70bd
00000210: 2c9e b3bc d979 243e 8786 6bbd cc20 583d
00000220: fbf0 d33d b466 c23d 854a 6f3d cbb6 3b3e
00000230: 21a8 c53d 3423 b7bc f85c 23be aadc 8c3d
00000240: cca8 973c eaad fb3d 9dac d43d 1131 603b
00000250: 2b24 193d 6364 483b 6c77 bfbd ddb9 87bd
00000260: a002 2ebd f458 3dbb 1168 d93c e61b 4dbc
00000270: 6a60 2b3d ee03 033e e2f0 743d 4b7d 213c
00000280: 53b1 b23d c685 7bbd b498 f8bc 09c4 2fbd
00000290: a6d4 6c3b 6156 903d 584e a83c 49e0 4e3d
000002a0: fb43 ca3d 33e1 7ebd 95ae b9bd 5dd3 883d
000002b0: 4dab e2bd 35b8 b13d f4ec 9cbc cc31 de3d
000002c0: dba1 f73d 2844 b23c 8fba 183e 5b80 a73d
000002d0: af8f 4d3d 85d7 39bd 5d22 efbd ee2d 583d
000002e0: 1ee7 463d 6246 98bd 9ab8 67bd 8d05 51bd
000002f0: 48ff c03c 2e85 333d 791b e73c e9d6 82bd
00000300: 39e1 213d aa09 f73d a1bc 893d 29a9 853d
00000310: f7fe 17bd 375b c1bc 9af5 363b 8e85 9bbd
00000320: b6fa e3be d796 85be 8ae9 4f3d 1431 233e
00000330: 28e1 c8bd 80e4 843d 57c7 af3d bdb9 79bd
00000340: 0877 413e 1b5c b9bd c963 9f3d 7096 9dbe
00000350: af07 56be eb29 f03c 98a5 86bd 26db 173e
00000360: 077b 3fbd a403 8d3e b042 183c f6f5 023d
00000370: 3458 853c 5c3f a23e b951 173c 405c 44bc
00000380: 60d5 413d 7679 58bd b35f 65bd 00e5 60bc
00000390: 6a7c 533d ad8c 46be 4ca9 15bd f0eb 53bc
000003a0: 4d37 8dbd 3148 1abe a05a f23b e3e8 0dbe
000003b0: 85d3 e9bc 9aad 46bd 2976 cbbc 9575 69be
000003c0: 995a c93d 4306 053d 985f 663e 0a0b 80be
000003d0: d868 5fbc f930 113e c546 fbbc eb17 223d
000003e0: 1249 763e 6cf5 92be 817e 973e 9393 6cbd
000003f0: bf81 c73d afb0 593e a7a7 92be d79d f0bd
0.24049875 0.19554017 -0.022551103 -0.1124537 0.07486955 -0.031974755 -0.05635134 0.018554747
-0.2141078 -0.09178293 -0.036071897 0.2317863 0.15841573 -0.05269255 0.04603757 0.025598908
0.015934182 -0.17369753 0.059181057 0.025573708 -0.07953765 -0.09326522 -0.046063285 0.05982936
0.1443674 -0.038926195 0.06914454 -0.005265355 -0.051813386 -0.10879526 0.060891993 0.04214322
0.05732643 0.09228543 -0.010886095 0.07433386 -0.15551016 -0.17325838 -0.024454245 -0.0531082
-0.023995064 -0.11605218 -0.0032196885 0.017005324 -0.09663602 -0.15222874 -0.081708744 0.061510555
-0.13914233 0.14503679 -0.24308783 0.032843255 -0.024722174 -0.1301883 0.19023971 0.1077703
-0.09565438 -0.121462286 -0.036189057 0.15462244 -0.11020631 0.12321967 -0.049743045 0.01306421
-0.026664399 -0.084449105 -0.24097352 -0.077431574 -0.19279057 0.014813498 0.09603337 0.28047597
0.04002517 0.03706158 0.0049828514 0.19045424 0.351738 0.0142211765 0.17801327 0.0993771
-0.042285863 0.09613748 -0.40561053 0.4027371 -0.05478082 -0.018490314 0.014845118 -0.04940751
0.025889479 0.01233194 0.021830756 -0.33870956 0.054559276 0.39285797 0.044868 0.1967366
-0.1304979 -0.33609325 -0.057981424 0.044373967 0.046804402 0.07822458 0.09549172 -0.016434595
-0.055396892 -0.05494509 -0.04194477 0.07201216 -0.04216408 -0.022733346 0.04236097 0.14213546
0.12339581 -0.060493555 0.061280992 -0.16055463 -0.0913824 -0.18033034 0.08568259 -0.060478557
0.09037726 -0.26738742 0.10761462 0.0101147145 -0.06658996 0.06366435 -0.003414929 -0.08228338
-0.063354425 0.1708771 0.02975411 -0.058797516 -0.021926008 0.16062106 -0.057501342 0.052765653
0.10348698 0.09492245 0.058420677 0.18331449 0.09651209 -0.022355653 -0.15953434 0.06878026
0.018513106 0.12289031 0.10384486 0.0034208933 0.037388008 0.0030577413 -0.0934895 -0.066272475
-0.042482972 -0.0028892132 0.02653888 -0.012518859 0.041839994 0.12794468 0.059800036 0.009856532
0.08725228 -0.061406873 -0.030346252 -0.042911563 0.003613749 0.070477255 0.02054517 0.050506864
0.098762475 -0.062226485 -0.09066502 0.06680939 -0.11067829 0.08677713 -0.019155957 0.10849342
0.12091418 0.021761015 0.14914916 0.08178779 0.050185855 -0.04537155 -0.11676476 0.052778177
0.048560254 -0.074352995 -0.056572534 -0.051030684 0.023559228 0.043828182 0.028211342 -0.06388647
0.03952143 0.1206239 0.06725431 0.06526405 -0.037108388 -0.023603065 0.0027917386 -0.07593833
-0.44527215 -0.26091644 0.05075983 0.1593669 -0.0980857 0.064888954 0.08582943 -0.06096815
0.18893063 -0.09050771 0.077827044 -0.30778837 -0.20901369 0.029316863 -0.06574553 0.14829692
-0.046748187 0.2754184 0.009293243 0.031972848 0.01627741 0.31688964 0.009235793 -0.011984885
0.04732263 -0.05285021 -0.05599947 -0.013726473 0.051632322 -0.19389601 -0.036538407 -0.01293467
-0.068953134 -0.15066601 0.0073960572 -0.1385837 -0.028543243 -0.048505403 -0.024836617 -0.2279876
0.09831733 0.032476675 0.22497404 -0.25008422 -0.013635837 0.14178838 -0.030673394 0.03957359
0.24051312 -0.28702867 0.29588702 -0.057757925 0.09741544 0.21258806 -0.28643534 -0.117488556

bias f4 [3]
00000000: 7c39 a83d ba83 673d 1a38 68be
0.08214089 0.05652211 -0.22677651
